…
      "execution_count": 0,
      "outputs": [
        {
          "output_type": "stream",
          "text": [
            "Found 74 images belonging to 15 classes.\n",
            "Found 150 images belonging to 15 classes.\n",
            "Found 525 images belonging to 15 classes.\n",
            "Model: \"model1\"\n",
            "_________________________________________________________________\n",
            "Layer (type)                 Output Shape              Param #   \n",
            "=================================================================\n",
            "conv2d_19 (Conv2D)           (None, 30, 30, 768)       21504     \n",
            "_________________________________________________________________\n",
            "max_pooling2d_16 (MaxPooling (None, 10, 10, 768)       0         \n",
            "_________________________________________________________________\n",
            "conv2d_20 (Conv2D)           (None, 10, 10, 1024)      7078912   \n",
            "_________________________________________________________________\n",
            "max_pooling2d_17 (MaxPooling (None, 3, 3, 1024)        0         \n",
            "_________________________________________________________________\n",
            "conv2d_21 (Conv2D)           (None, 3, 3, 512)         4719104   \n",
            "_________________________________________________________________\n",
            "max_pooling2d_18 (MaxPooling (None, 1, 1, 512)         0         \n",
            "_________________________________________________________________\n",
            "conv2d_22 (Conv2D)           (None, 1, 1, 256)         1179904   \n",
            "_________________________________________________________________\n",
            "flatten_4 (Flatten)          (None, 256)               0         \n",
            "_________________________________________________________________\n",
            "dense_4 (Dense)              (None, 15)                3855      \n",
            "=================================================================\n",
            "Total params: 13,003,279\n",
            "Trainable params: 13,003,279\n",
            "Non-trainable params: 0\n",
            "_________________________________________________________________\n",
            "Epoch 1/25\n",
            "17/17 [==============================] - 66s 4s/step - loss: 2.7188 - acc: 0.0610 - val_loss: 2.7066 - val_acc: 0.0667\n",
…
      "execution_count": 0,
      "outputs": [
        {
          "output_type": "stream",
          "text": [
            "Found 74 images belonging to 15 classes.\n",
            "Found 150 images belonging to 15 classes.\n",
            "Found 525 images belonging to 15 classes.\n",
            "Model: \"model2\"\n",
            "_________________________________________________________________\n",
            "Layer (type)                 Output Shape              Param #   \n",
            "=================================================================\n",
            "conv2d_1 (Conv2D)            (None, 46, 46, 768)       21504     \n",
            "_________________________________________________________________\n",
            "max_pooling2d_1 (MaxPooling2 (None, 15, 15, 768)       0         \n",
            "_________________________________________________________________\n",
            "conv2d_2 (Conv2D)            (None, 15, 15, 1024)      7078912   \n",
            "_________________________________________________________________\n",
            "max_pooling2d_2 (MaxPooling2 (None, 5, 5, 1024)        0         \n",
            "_________________________________________________________________\n",
            "conv2d_3 (Conv2D)            (None, 5, 5, 512)         4719104   \n",
            "_________________________________________________________________\n",
            "max_pooling2d_3 (MaxPooling2 (None, 1, 1, 512)         0         \n",
            "_________________________________________________________________\n",
            "conv2d_4 (Conv2D)            (None, 1, 1, 256)         1179904   \n",
            "_________________________________________________________________\n",
            "flatten_1 (Flatten)          (None, 256)               0         \n",
            "_________________________________________________________________\n",
            "dense_1 (Dense)              (None, 15)                3855      \n",
            "=================================================================\n",
            "Total params: 13,003,279\n",
            "Trainable params: 13,003,279\n",
            "Non-trainable params: 0\n",
            "_________________________________________________________________\n",
            "Epoch 1/25\n",
            "17/17 [==============================] - 159s 9s/step - loss: 2.7226 - acc: 0.0648 - val_loss: 2.7120 - val_acc: 0.1400\n",
…
        "outputId": "0d7a4ab0-34cd-485b-ebc3-f6bf8d1b72fd",
        "colab": {
          "base_uri": "https://localhost:8080/",
          "height": 493
        }
      },
      "source": [
        ""
      ],
      "execution_count": 0,
      "outputs": [
        {
          "output_type": "stream",
          "text": [
            "Model: \"CNN 4\"\n",
            "_________________________________________________________________\n",
            "Layer (type)                 Output Shape              Param #   \n",
            "=================================================================\n",
            "conv2d_1 (Conv2D)            (None, 30, 30, 768)       21504     \n",
            "_________________________________________________________________\n",
            "max_pooling2d_1 (MaxPooling2 (None, 10, 10, 768)       0         \n",
            "_________________________________________________________________\n",
            "conv2d_2 (Conv2D)            (None, 10, 10, 1024)      7078912   \n",
            "_________________________________________________________________\n",
            "max_pooling2d_2 (MaxPooling2 (None, 3, 3, 1024)        0         \n",
            "_________________________________________________________________\n",
            "dropout_1 (Dropout)          (None, 3, 3, 1024)        0         \n",
            "_________________________________________________________________\n",
            "conv2d_3 (Conv2D)            (None, 3, 3, 512)         4719104   \n",
            "_________________________________________________________________\n",
            "max_pooling2d_3 (MaxPooling2 (None, 1, 1, 512)         0         \n",
            "_________________________________________________________________\n",
            "conv2d_4 (Conv2D)            (None, 1, 1, 256)         1179904   \n",
            "_________________________________________________________________\n",
            "flatten_1 (Flatten)          (None, 256)               0         \n",
            "_________________________________________________________________\n",
            "dense_1 (Dense)              (None, 15)                3855      \n",
            "=================================================================\n",
            "Total params: 13,003,279\n",
            "Trainable params: 13,003,279\n",
            "Non-trainable params: 0\n",
            "_________________________________________________________________\n"
          ],
          "name": "stdout"
        }
      ]
    },
    {
      "cell_type": "code",
…
      "execution_count": 0,
      "outputs": [
        {
          "output_type": "stream",
          "text": [
            "Found 74 images belonging to 15 classes.\n",
            "Found 150 images belonging to 15 classes.\n",
            "Found 525 images belonging to 15 classes.\n",
            "Model: \"CNN 4\"\n",
            "_________________________________________________________________\n",
            "Layer (type)                 Output Shape              Param #   \n",
            "=================================================================\n",
            "conv2d_1 (Conv2D)            (None, 34, 34, 768)       21504     \n",
            "_________________________________________________________________\n",
            "max_pooling2d_1 (MaxPooling2 (None, 11, 11, 768)       0         \n",
            "_________________________________________________________________\n",
            "conv2d_2 (Conv2D)            (None, 11, 11, 1024)      7078912   \n",
            "_________________________________________________________________\n",
            "max_pooling2d_2 (MaxPooling2 (None, 3, 3, 1024)        0         \n",
            "_________________________________________________________________\n",
            "dropout_1 (Dropout)          (None, 3, 3, 1024)        0         \n",
            "_________________________________________________________________\n",
            "conv2d_3 (Conv2D)            (None, 3, 3, 512)         4719104   \n",
            "_________________________________________________________________\n",
            "max_pooling2d_3 (MaxPooling2 (None, 1, 1, 512)         0         \n",
            "_________________________________________________________________\n",
            "conv2d_4 (Conv2D)            (None, 1, 1, 256)         1179904   \n",
            "_________________________________________________________________\n",
            "flatten_1 (Flatten)          (None, 256)               0         \n",
            "_________________________________________________________________\n",
            "dense_1 (Dense)              (None, 15)                3855      \n",
            "=================================================================\n",
            "Total params: 13,003,279\n",
            "Trainable params: 13,003,279\n",
            "Non-trainable params: 0\n",
            "_________________________________________________________________\n",
            "Epoch 1/50\n",
            "17/17 [==============================] - 201s 12s/step - loss: 2.7158 - acc: 0.0495 - val_loss: 2.7106 - val_acc: 0.1133\n",
…
        "results_train\n",
        "\n",
        "results_test\n",
        "\n",
        "#model.predict_classes(val_images)"
      ],
      "execution_count": 0,
      "outputs": [
        {
          "output_type": "stream",
          "text": [
            "Model: \"CNN 3HL(1024/512/256/512)-5Ep-TL=False\"\n",
            "_________________________________________________________________\n",
            "Layer (type)                 Output Shape              Param #   \n",
            "=================================================================\n",
            "conv2d_25 (Conv2D)           (None, 62, 62, 1024)      28672     \n",
            "_________________________________________________________________\n",
            "max_pooling2d_25 (MaxPooling (None, 31, 31, 1024)      0         \n",
            "_________________________________________________________________\n",
            "conv2d_26 (Conv2D)           (None, 31, 31, 2048)      18876416  \n",
            "_________________________________________________________________\n",
            "max_pooling2d_26 (MaxPooling (None, 15, 15, 2048)      0         \n",
            "_________________________________________________________________\n",
            "conv2d_27 (Conv2D)           (None, 15, 15, 256)       4718848   \n",
            "_________________________________________________________________\n",
            "max_pooling2d_27 (MaxPooling (None, 7, 7, 256)         0         \n",
            "_________________________________________________________________\n",
            "conv2d_28 (Conv2D)           (None, 7, 7, 512)         1180160   \n",
            "_________________________________________________________________\n",
            "max_pooling2d_28 (MaxPooling (None, 3, 3, 512)         0         \n",
            "_________________________________________________________________\n",
            "flatten_7 (Flatten)          (None, 4608)              0         \n",
            "_________________________________________________________________\n",
            "dense_7 (Dense)              (None, 11)                50699     \n",
            "=================================================================\n",
            "Total params: 24,854,795\n",
            "Trainable params: 24,854,795\n",
            "Non-trainable params: 0\n",
            "_________________________________________________________________\n",
            "Train on 783 samples, validate on 88 samples\n",
            "Epoch 1/5\n",
            " 96/783 [==>...........................] - ETA: 1:31 - loss: 3.2600 - acc: 0.0833"
…
